…
The sparsity of the dataset: 99.92760389550713%
Remain Fields: ['user_id', 'item_id', 'rating', 'timestamp', 'title', 'price', 'sales_type', 'sales_rank', 'brand', 'categories']
Mon 05 Jun 2023 04:18:09 INFO  [Training]: train_batch_size = [2048] train_neg_sample_args: [{'distribution': 'none', 'sample_num': 'none', 'alpha': 'none', 'dynamic': False, 'candidate_num': 0}]
Mon 05 Jun 2023 04:18:09 INFO  [Evaluation]: eval_batch_size = [131072] eval_args: [{'split': {'LS': 'valid_and_test'}, 'order': 'TO', 'group_by': 'user', 'mode': {'valid': 'uni100', 'test': 'uni100'}}]
Mon 05 Jun 2023 04:18:10 INFO  AdaMCT(
  (item_embedding): Embedding(11925, 32, padding_idx=0)
  (position_embedding): Embedding(50, 32)
  (adamct_encoder): AdaMCTEncoder(
    (layer): ModuleList(
      (0): AdaMCTLayer(
        (linear_en): Linear(in_features=32, out_features=32, bias=True)
        (LayerNorm): LayerNorm((32,), eps=1e-12, elementwise_affine=True)
        (dropout): Dropout(p=0.5, inplace=False)
        (multi_head_attention): MultiHeadAttention(
          (query): Linear(in_features=32, out_features=32, bias=True)
          (key): Linear(in_features=32, out_features=32, bias=True)
          (value): Linear(in_features=32, out_features=32, bias=True)
          (softmax): Softmax(dim=-1)
          (attn_dropout): Dropout(p=0.5, inplace=False)
          (dense): Linear(in_features=32, out_features=32, bias=True)
          (LayerNorm): LayerNorm((32,), eps=1e-12, elementwise_affine=True)
          (out_dropout): Dropout(p=0.5, inplace=False)
        )
        (local_conv): LocalConv(
          (conv_1_3): Conv1d(32, 32, kernel_size=(3,), stride=(1,), padding=(1,))
          (LayerNorm): LayerNorm((32,), eps=1e-12, elementwise_affine=True)
        )
        (global_seatt): SqueezeExcitationAttention(
          (dense_1): Linear(in_features=50, out_features=25, bias=True)
          (dense_2): Linear(in_features=25, out_features=50, bias=True)
        )
        (local_seatt): SqueezeExcitationAttention(
          (dense_1): Linear(in_features=50, out_features=25, bias=True)
          (dense_2): Linear(in_features=25, out_features=50, bias=True)
        )
        (adaptive_mixture_units): AdaptiveMixtureUnits(
          (linear): Linear(in_features=32, out_features=1, bias=True)
          (linear_out): Linear(in_features=32, out_features=32, bias=True)
          (LayerNorm): LayerNorm((32,), eps=1e-12, elementwise_affine=True)
          (dropout): Dropout(p=0.5, inplace=False)
        )
      )
      (1): AdaMCTLayer(
        (linear_en): Linear(in_features=32, out_features=32, bias=True)
        (LayerNorm): LayerNorm((32,), eps=1e-12, elementwise_affine=True)
        (dropout): Dropout(p=0.5, inplace=False)
        (multi_head_attention): MultiHeadAttention(
          (query): Linear(in_features=32, out_features=32, bias=True)
          (key): Linear(in_features=32, out_features=32, bias=True)
          (value): Linear(in_features=32, out_features=32, bias=True)
          (softmax): Softmax(dim=-1)
          (attn_dropout): Dropout(p=0.5, inplace=False)
          (dense): Linear(in_features=32, out_features=32, bias=True)
          (LayerNorm): LayerNorm((32,), eps=1e-12, elementwise_affine=True)
          (out_dropout): Dropout(p=0.5, inplace=False)
        )
        (local_conv): LocalConv(
          (conv_1_3): Conv1d(32, 32, kernel_size=(3,), stride=(1,), padding=(1,))
          (LayerNorm): LayerNorm((32,), eps=1e-12, elementwise_affine=True)
        )
        (global_seatt): SqueezeExcitationAttention(
          (dense_1): Linear(in_features=50, out_features=25, bias=True)
          (dense_2): Linear(in_features=25, out_features=50, bias=True)
        )
        (local_seatt): SqueezeExcitationAttention(
          (dense_1): Linear(in_features=50, out_features=25, bias=True)
          (dense_2): Linear(in_features=25, out_features=50, bias=True)
        )
        (adaptive_mixture_units): AdaptiveMixtureUnits(
          (linear): Linear(in_features=32, out_features=1, bias=True)
          (linear_out): Linear(in_features=32, out_features=32, bias=True)
          (LayerNorm): LayerNorm((32,), eps=1e-12, elementwise_affine=True)
          (dropout): Dropout(p=0.5, inplace=False)
        )
      )
    )
  )
  (LayerNorm): LayerNorm((32,), eps=1e-12, elementwise_affine=True)
  (dropout): Dropout(p=0.5, inplace=False)
  (loss_fct): CrossEntropyLoss()
)
Trainable parameters: 413022
Mon 05 Jun 2023 04:18:12 INFO  FLOPs: 1023296.0
Mon 05 Jun 2023 04:18:19 INFO  epoch 0 training [time: 6.87s, train loss: 502.8577]
Mon 05 Jun 2023 04:19:11 INFO  epoch 0 evaluating [time: 52.16s, valid_score: 0.269000]
Mon 05 Jun 2023 04:19:11 INFO  valid result: 
…
