…
The sparsity of the dataset: 99.95465569853714%
Remain Fields: ['user_id', 'item_id', 'rating', 'timestamp', 'title', 'price', 'brand', 'categories', 'sales_type', 'sales_rank']
Mon 05 Jun 2023 04:50:10 INFO  [Training]: train_batch_size = [2048] train_neg_sample_args: [{'distribution': 'none', 'sample_num': 'none', 'alpha': 'none', 'dynamic': False, 'candidate_num': 0}]
Mon 05 Jun 2023 04:50:10 INFO  [Evaluation]: eval_batch_size = [131072] eval_args: [{'split': {'LS': 'valid_and_test'}, 'order': 'TO', 'group_by': 'user', 'mode': {'valid': 'uni100', 'test': 'uni100'}}]
Mon 05 Jun 2023 04:50:11 INFO  AdaMCT(
  (item_embedding): Embedding(18358, 64, padding_idx=0)
  (position_embedding): Embedding(50, 64)
  (adamct_encoder): AdaMCTEncoder(
    (layer): ModuleList(
      (0): AdaMCTLayer(
        (linear_en): Linear(in_features=64, out_features=64, bias=True)
        (LayerNorm): LayerNorm((64,), eps=1e-12, elementwise_affine=True)
        (dropout): Dropout(p=0.76, inplace=False)
        (multi_head_attention): MultiHeadAttention(
          (query): Linear(in_features=64, out_features=64, bias=True)
          (key): Linear(in_features=64, out_features=64, bias=True)
          (value): Linear(in_features=64, out_features=64, bias=True)
          (softmax): Softmax(dim=-1)
          (attn_dropout): Dropout(p=0.51, inplace=False)
          (dense): Linear(in_features=64, out_features=64, bias=True)
          (LayerNorm): LayerNorm((64,), eps=1e-12, elementwise_affine=True)
          (out_dropout): Dropout(p=0.76, inplace=False)
        )
        (local_conv): LocalConv(
          (conv_1_3): Conv1d(64, 64, kernel_size=(3,), stride=(1,), padding=(1,))
          (LayerNorm): LayerNorm((64,), eps=1e-12, elementwise_affine=True)
        )
        (global_seatt): SqueezeExcitationAttention(
          (dense_1): Linear(in_features=50, out_features=10, bias=True)
          (dense_2): Linear(in_features=10, out_features=50, bias=True)
        )
        (local_seatt): SqueezeExcitationAttention(
          (dense_1): Linear(in_features=50, out_features=10, bias=True)
          (dense_2): Linear(in_features=10, out_features=50, bias=True)
        )
        (adaptive_mixture_units): AdaptiveMixtureUnits(
          (linear): Linear(in_features=64, out_features=1, bias=True)
          (linear_out): Linear(in_features=64, out_features=64, bias=True)
          (LayerNorm): LayerNorm((64,), eps=1e-12, elementwise_affine=True)
          (dropout): Dropout(p=0.76, inplace=False)
        )
      )
      (1): AdaMCTLayer(
        (linear_en): Linear(in_features=64, out_features=64, bias=True)
        (LayerNorm): LayerNorm((64,), eps=1e-12, elementwise_affine=True)
        (dropout): Dropout(p=0.76, inplace=False)
        (multi_head_attention): MultiHeadAttention(
          (query): Linear(in_features=64, out_features=64, bias=True)
          (key): Linear(in_features=64, out_features=64, bias=True)
          (value): Linear(in_features=64, out_features=64, bias=True)
          (softmax): Softmax(dim=-1)
          (attn_dropout): Dropout(p=0.51, inplace=False)
          (dense): Linear(in_features=64, out_features=64, bias=True)
          (LayerNorm): LayerNorm((64,), eps=1e-12, elementwise_affine=True)
          (out_dropout): Dropout(p=0.76, inplace=False)
        )
        (local_conv): LocalConv(
          (conv_1_3): Conv1d(64, 64, kernel_size=(3,), stride=(1,), padding=(1,))
          (LayerNorm): LayerNorm((64,), eps=1e-12, elementwise_affine=True)
        )
        (global_seatt): SqueezeExcitationAttention(
          (dense_1): Linear(in_features=50, out_features=10, bias=True)
          (dense_2): Linear(in_features=10, out_features=50, bias=True)
        )
        (local_seatt): SqueezeExcitationAttention(
          (dense_1): Linear(in_features=50, out_features=10, bias=True)
          (dense_2): Linear(in_features=10, out_features=50, bias=True)
        )
        (adaptive_mixture_units): AdaptiveMixtureUnits(
          (linear): Linear(in_features=64, out_features=1, bias=True)
          (linear_out): Linear(in_features=64, out_features=64, bias=True)
          (LayerNorm): LayerNorm((64,), eps=1e-12, elementwise_affine=True)
          (dropout): Dropout(p=0.76, inplace=False)
        )
      )
    )
  )
  (LayerNorm): LayerNorm((64,), eps=1e-12, elementwise_affine=True)
  (dropout): Dropout(p=0.76, inplace=False)
  (loss_fct): CrossEntropyLoss()
)
Trainable parameters: 1258258
Mon 05 Jun 2023 04:50:14 INFO  FLOPs: 3814192.0
Mon 05 Jun 2023 04:50:24 INFO  epoch 0 training [time: 10.17s, train loss: 886.2101]
Mon 05 Jun 2023 04:52:29 INFO  epoch 0 evaluating [time: 124.98s, valid_score: 0.363100]
Mon 05 Jun 2023 04:52:29 INFO  valid result: 
…
