…
The sparsity of the dataset: 99.92665707018277%
Remain Fields: ['user_id', 'item_id', 'rating', 'timestamp', 'title', 'sales_type', 'sales_rank', 'categories', 'price', 'brand']
Mon 05 Jun 2023 01:47:56 INFO  [Training]: train_batch_size = [2048] train_neg_sample_args: [{'distribution': 'none', 'sample_num': 'none', 'alpha': 'none', 'dynamic': False, 'candidate_num': 0}]
Mon 05 Jun 2023 01:47:56 INFO  [Evaluation]: eval_batch_size = [262144] eval_args: [{'split': {'LS': 'valid_and_test'}, 'order': 'TO', 'group_by': 'user', 'mode': {'valid': 'uni100', 'test': 'uni100'}}]
Mon 05 Jun 2023 01:47:57 INFO  AdaMCT(
  (item_embedding): Embedding(12102, 16, padding_idx=0)
  (position_embedding): Embedding(50, 16)
  (adamct_encoder): AdaMCTEncoder(
    (layer): ModuleList(
      (0): AdaMCTLayer(
        (linear_en): Linear(in_features=16, out_features=16, bias=True)
        (LayerNorm): LayerNorm((16,), eps=1e-12, elementwise_affine=True)
        (dropout): Dropout(p=0.43, inplace=False)
        (multi_head_attention): MultiHeadAttention(
          (query): Linear(in_features=16, out_features=16, bias=True)
          (key): Linear(in_features=16, out_features=16, bias=True)
          (value): Linear(in_features=16, out_features=16, bias=True)
          (softmax): Softmax(dim=-1)
          (attn_dropout): Dropout(p=0.57, inplace=False)
          (dense): Linear(in_features=16, out_features=16, bias=True)
          (LayerNorm): LayerNorm((16,), eps=1e-12, elementwise_affine=True)
          (out_dropout): Dropout(p=0.43, inplace=False)
        )
        (local_conv): LocalConv(
          (conv_1_3): Conv1d(16, 16, kernel_size=(5,), stride=(1,), padding=(2,))
          (LayerNorm): LayerNorm((16,), eps=1e-12, elementwise_affine=True)
        )
        (global_seatt): SqueezeExcitationAttention(
          (dense_1): Linear(in_features=50, out_features=25, bias=True)
          (dense_2): Linear(in_features=25, out_features=50, bias=True)
        )
        (local_seatt): SqueezeExcitationAttention(
          (dense_1): Linear(in_features=50, out_features=25, bias=True)
          (dense_2): Linear(in_features=25, out_features=50, bias=True)
        )
        (adaptive_mixture_units): AdaptiveMixtureUnits(
          (linear): Linear(in_features=16, out_features=1, bias=True)
          (linear_out): Linear(in_features=16, out_features=16, bias=True)
          (LayerNorm): LayerNorm((16,), eps=1e-12, elementwise_affine=True)
          (dropout): Dropout(p=0.43, inplace=False)
        )
      )
      (1): AdaMCTLayer(
        (linear_en): Linear(in_features=16, out_features=16, bias=True)
        (LayerNorm): LayerNorm((16,), eps=1e-12, elementwise_affine=True)
        (dropout): Dropout(p=0.43, inplace=False)
        (multi_head_attention): MultiHeadAttention(
          (query): Linear(in_features=16, out_features=16, bias=True)
          (key): Linear(in_features=16, out_features=16, bias=True)
          (value): Linear(in_features=16, out_features=16, bias=True)
          (softmax): Softmax(dim=-1)
          (attn_dropout): Dropout(p=0.57, inplace=False)
          (dense): Linear(in_features=16, out_features=16, bias=True)
          (LayerNorm): LayerNorm((16,), eps=1e-12, elementwise_affine=True)
          (out_dropout): Dropout(p=0.43, inplace=False)
        )
        (local_conv): LocalConv(
          (conv_1_3): Conv1d(16, 16, kernel_size=(5,), stride=(1,), padding=(2,))
          (LayerNorm): LayerNorm((16,), eps=1e-12, elementwise_affine=True)
        )
        (global_seatt): SqueezeExcitationAttention(
          (dense_1): Linear(in_features=50, out_features=25, bias=True)
          (dense_2): Linear(in_features=25, out_features=50, bias=True)
        )
        (local_seatt): SqueezeExcitationAttention(
          (dense_1): Linear(in_features=50, out_features=25, bias=True)
          (dense_2): Linear(in_features=25, out_features=50, bias=True)
        )
        (adaptive_mixture_units): AdaptiveMixtureUnits(
          (linear): Linear(in_features=16, out_features=1, bias=True)
          (linear_out): Linear(in_features=16, out_features=16, bias=True)
          (LayerNorm): LayerNorm((16,), eps=1e-12, elementwise_affine=True)
          (dropout): Dropout(p=0.43, inplace=False)
        )
      )
    )
  )
  (LayerNorm): LayerNorm((16,), eps=1e-12, elementwise_affine=True)
  (dropout): Dropout(p=0.43, inplace=False)
  (loss_fct): CrossEntropyLoss()
)
Trainable parameters: 210910
Mon 05 Jun 2023 01:48:01 INFO  FLOPs: 337448.0
Mon 05 Jun 2023 01:48:07 INFO  epoch 0 training [time: 5.79s, train loss: 574.6113]
Mon 05 Jun 2023 01:48:34 INFO  epoch 0 evaluating [time: 26.73s, valid_score: 0.399500]
Mon 05 Jun 2023 01:48:34 INFO  valid result: 
…
